Q2/ppo_cartpole.pth (torch, 21499 bytes, 5 tensors)

net.0.weight f4 [64, 5]
000000 49 a9 da 3d 32 37 0f be f9 d6 9f bf 4a 03 8a 3e
       0.1067682 -0.13985899 -1.248748 0.26955634
000010 51 06 e1 3d af 4d d9 3e 57 a8 a3 be e4 00 5a 3f
       0.10987533 0.4244208 -0.3196437 0.8515761
000020 87 0d 47 bb c0 d1 2a be cd cc b6 be 17 ba 7b be
       -0.0030373053 -0.16681576 -0.35703126 -0.24582706
000030 22 dd f1 3e 08 26 d9 3e e8 7b 11 3e cc 50 7c be
       0.47239023 0.42411828 0.14207423 -0.24640197
000040 43 7b ee bd f0 98 22 bf 6e 45 89 be 4c b6 d1 3e
       -0.11644604 -0.63514614 -0.26810783 0.40959394
000050 6e 45 ee 3e 88 02 5c 3e 46 a1 0d 3f bd 99 e8 3e
       0.46537346 0.2148534 0.5532421 0.45429793
000060 85 73 6d be 47 12 67 be 82 5f 82 be 9c ee 7d bf
       -0.23188598 -0.22565566 -0.25463492 -0.99192214
000070 f6 db 9a be d4 cc 36 3e 2b 97 09 bd 4b 6a eb 3d
       -0.30245942 0.17851573 -0.03359143 0.11494883
000080 24 48 03 3f 2f 50 72 3e 1c f2 33 3f 5d 91 42 be
       0.5128195 0.236634 0.70291305 -0.19000764
000090 0b e9 5e bd 3c db 06 bf 37 ec 3a bd 45 1d e2 3d
       -0.054421466 -0.52678275 -0.04563543 0.11040739
0000a0 fd 16 aa be 20 5c 56 be ab ad 4c bf ff 62 71 be
       -0.33220664 -0.2093358 -0.79952496 -0.2357292
0000b0 e4 d7 8c 3e 3c 47 dc 3d eb 89 13 be d7 01 82 3f
       0.2750846 0.107557744 -0.1440808 1.0156811
0000c0 8b e3 69 be cf 30 96 3e e3 47 c2 be b0 a1 3b 3d
       -0.22840707 0.29334113 -0.3794547 0.045808494
0000d0 69 e9 86 bf 53 8b 1c 3d 1d a8 c0 be cc bd 69 3e
       -1.0539981 0.038218807 -0.3762826 0.22826308
0000e0 7f 28 ba bd ba 49 37 3f 7a 32 48 be 40 cf f3 3d
       -0.09089755 0.7159687 -0.19550505 0.11904764
0000f0 dd 21 57 3e 25 82 e7 3d 66 9e da 3e c1 13 81 3e
       0.21009012 0.1130412 0.42698973 0.25210384
000100 eb 05 ab 3e 8f 0e 14 3e 85 bb 1c be d5 3a 8c bf
       0.33402953 0.14458679 -0.15305908 -1.0955454
000110 8b 53 68 3e cb 75 e8 3d a8 28 c4 bd 89 18 01 3e
       0.22688119 0.11350592 -0.09578067 0.12607016
000120 26 4d 74 bf eb 37 01 bf 93 8c fb be 34 22 b2 3d
       -0.9543022 -0.5047595 -0.49130687 0.0869793
000130 59 8c 40 be b5 06 55 bf ce eb ad 3e 42 66 b1 bd
       -0.18803538 -0.8321336 0.33968967 -0.08662082
000140 65 eb c0 3e a9 19 59 3e 30 0a 15 3f 98 b9 dd 3e
       0.37679592 0.21201195 0.5821867 0.4330566
000150 26 fe b8 3d 4e bb 3b 3d 6f d3 f2 bd 50 03 41 3f
       0.0903285 0.045832925 -0.11856734 0.7539568
000160 f2 21 84 3d c7 92 a8 3e 5c 30 6e be 44 1d ef 3c
       0.06451787 0.32924482 -0.23260635 0.02918876
000170 06 57 1e be 99 d5 88 be 87 d6 07 be 47 8a 45 3e
       -0.15462884 -0.26725462 -0.1326543 0.1929103
000180 13 47 96 3e 57 03 95 bf 2f d6 d3 be b5 f1 b8 be
       0.293511 -1.1641644 -0.41374347 -0.36121908
000190 ea 58 00 3e 12 8e c2 bd 61 46 40 3f 7b 52 09 3f
       0.12533918 -0.09499754 0.7510739 0.5364148
0001a0 dc 0d 45 be 56 c1 27 3e 06 d7 58 bd 36 d1 a6 be
       -0.19243568 0.16382346 -0.052939437 -0.3258149
0001b0 a9 34 73 be c3 be 12 bd 32 31 53 3e 05 84 9a be
       -0.23750557 -0.035826456 0.20624235 -0.30178848
0001c0 c7 cc 43 bf b8 47 ae be c0 eb 1e bf ac e2 b7 3e
       -0.7648434 -0.34039092 -0.62078476 0.35915124
0001d0 4d 7e a5 3e ab fc 54 bf 86 03 9d 3d 8c 23 7a 3d
       0.32322922 -0.8319804 0.07666688 0.061069056
0001e0 0b 58 8b 3d 08 69 60 be 98 01 e2 3d 6a 32 62 be
       0.06803902 -0.21915066 0.1103546 -0.22089544
0001f0 4c 57 df be 54 93 cd 3e 7b 72 15 be 01 fa ec be
       -0.4362129 0.40151465 -0.14594452 -0.46284488
000200 ff e9 88 be dc 16 01 bd 98 f6 d6 3e 0a 0e 8a 3e
       -0.26741025 -0.03151594 0.4198501 0.26963836
000210 b8 a3 7a 3f 6b 92 d5 3e 8f 80 3c 3f 87 12 57 3e
       0.97906065 0.4171327 0.73633665 0.21003161
000220 67 71 85 be bc a4 35 bf 23 85 9d 3d 5d d7 89 be
       -0.26063082 -0.7095449 0.076914094 -0.26922122
000230 a9 90 e7 3e 36 45 c3 3c 02 c0 52 3e 22 08 de 3e
       0.45227554 0.023836713 0.20581058 0.4336558
000240 db 25 9c bc 3f 8a ca be 3a 8f 4c be 14 e9 68 3f
       -0.01906102 -0.39558598 -0.19976512 0.9098065
000250 8b 65 04 be 2f 7e 8a bd 9b a9 db 3d f6 48 81 3e
       -0.1292936 -0.06762349 0.10725709 0.25250977
000260 b6 6f c4 3e ca 6b 1c 3f 7e d7 f1 be 31 5a 39 be
       0.3836648 0.61101973 -0.4723472 -0.18100812
000270 00 9a ef 3d ad 83 63 bf 40 c2 87 be f7 52 d9 bd
       0.11699295 -0.88872796 -0.26515388 -0.106115274
000280 ef 2d 1d 3c 97 ef 15 3d 84 1d 41 bf fc ad fa be
       0.009593471 0.036605444 -0.7543566 -0.48960865
000290 f1 de 53 bf 24 a0 08 3f 30 e5 a5 be e5 d4 87 3e
       -0.82762057 0.53369355 -0.3240142 0.26529613
0002a0 16 95 ff 3d b2 c5 04 3f 5d 5b 42 3e 0a 7c 24 be
       0.12479608 0.5186416 0.18980165 -0.16062942
0002b0 32 29 5a bf a1 70 77 be 09 ce 9b 3d f8 b6 4a bd
       -0.8521911 -0.24164058 0.076076575 -0.0494909
0002c0 a6 31 95 3e 91 b5 f0 be 67 3f ba be 97 03 79 3e
       0.2913944 -0.47013524 -0.36376497 0.24317776
0002d0 2b 0c 03 bf f1 80 2e 3e 79 2f 8e bf c0 00 d8 3d
       -0.5119044 0.17041375 -1.1108238 0.10547018
0002e0 7f a0 84 be 8a a7 a6 be 5f 2e a2 3d 0b a4 47 3f
       -0.259037 -0.32549697 0.07919001 0.77984685
0002f0 2f b4 d8 3e 07 f8 03 3f 88 6f 95 3e 91 38 52 bd
       0.4232497 0.51550335 0.29186654 -0.051323477
000300 f6 cc d2 be d6 c4 95 3e d3 60 e4 3d ca 18 e6 be
       -0.41171998 0.29251736 0.1115128 -0.44940788
000310 e2 1d 88 3d 66 2a 4d 3f cd 32 a4 3e a4 e2 bc 3e
       0.06646325 0.8014282 0.32070008 0.36891663
000320 0b 96 c1 be 19 3c 0e bd ff 05 88 bf 32 78 d9 be
       -0.37809786 -0.034725282 -1.062683 -0.42474514
000330 d1 50 88 bd 3f 49 c3 bd 5c 86 b1 3d e7 0f 5b 3f
       -0.066560395 -0.09535455 0.08668205 0.8557114
000340 b9 d6 8b 3e 26 6c 1f 3f 61 43 88 be 18 54 6f 3e
       0.27312258 0.62274396 -0.26613906 0.23371923
000350 6a a4 37 3f c1 de 0e 3f e8 18 11 3d 91 58 bd be
       0.7173525 0.55808645 0.035424143 -0.36981633
000360 74 4b 59 3e 95 6d 21 bf be 3e e6 3d fe b5 b0 3e
       0.2122019 -0.63057834 0.11242436 0.3451385
000370 93 8d cf 3d b5 1f 89 3e 1f 0c 93 3f 44 1d 34 3e
       0.10134425 0.26782003 1.1488074 0.17589289
000380 96 e2 2e 3f 68 c7 8d 3d dc 50 0d ba 7b bb 37 bf
       0.6831449 0.06922799 -0.0005390772 -0.7177045
000390 e1 e0 5a be 78 e5 20 be 87 5e 81 be db d9 d5 be
       -0.21374847 -0.15712535 -0.2526743 -0.41767773
0003a0 d7 21 61 bf 4b 18 c3 bd a7 46 90 3d 9b 46 9a 3e
       -0.8794226 -0.09526118 0.07044726 0.30131993
0003b0 29 bf 6d 3e 18 d6 93 3f 31 09 b9 3e 41 8c 02 3e
       0.23217453 1.1549711 0.36139825 0.12748815
0003c0 04 79 88 be d5 b7 05 be e4 28 7c 3f 90 1b d2 3e
       -0.26654828 -0.13058408 0.98499894 0.41036654
0003d0 c9 fd 06 3e 1a 61 19 3e 99 9f 0e bd c2 cd b6 be
       0.13182749 0.14978448 -0.034820173 -0.35703856
0003e0 67 8d 08 bf 27 2a 3d bf 72 0e 99 be ae be 4b 3d
       -0.5334076 -0.73892444 -0.29893833 0.049742393
0003f0 b3 42 85 3f ee 6c b2 be 18 82 5c 3c 13 27 3d 3d
       1.041098 -0.34848732 0.013458751 0.046179842

net.0.bias f4 [64]
000000 42 2a 5d 3d a9 5f b9 3e 31 ef a7 3d 1d cf 33 3d
       0.05399538 0.36205795 0.08199919 0.04389869
000010 25 c0 55 3e fa 5f 3a 3e 2d 6e 77 be be 0e 83 3d
       0.20874079 0.18200675 -0.24163122 0.06399296
000020 34 99 76 3e aa d3 96 3e 8f 93 72 3e 17 67 04 be
       0.2408188 0.29458362 0.23689102 -0.1292995
000030 4f 9c 91 bd e5 c6 d3 3d 45 47 8b be 60 d3 a3 3e
       -0.071098916 0.103406705 -0.27202812 0.31997204
000040 80 da 69 be 27 95 0c be 9d 37 78 bc 30 5e a1 be
       -0.22837257 -0.13728772 -0.015149978 -0.31517172
000050 be f2 b1 3e cd 82 1d 3d ab 66 ca 3e 06 38 a7 be
       0.3475551 0.03845482 0.39531454 -0.3265993
000060 e0 8c 7c 3c 91 44 05 3e fb 9c 3d be 61 e1 82 3e
       0.015414447 0.13014437 -0.18516915 0.25562575
000070 9d a6 cb bc 0e af 47 3e 8f 47 fb bd 94 81 05 3e
       -0.02485972 0.19500372 -0.12269508 0.13037711
000080 02 3b d5 ba 2b 95 db 3d 04 53 93 3e 83 1c c1 be
       -0.0016268196 0.10721811 0.28774273 -0.37717065
000090 35 ca 88 be b4 a0 2f 3e 56 be 12 3d e6 8b 57 be
       -0.26716772 0.17151147 0.03582605 -0.21049461
0000a0 ae e8 97 bd b3 ad 13 be ed 8e f8 3c ee 4c 80 be
       -0.07417427 -0.1442173 0.03034159 -0.25058693
0000b0 ab 5b 95 be 68 e8 8b 3c f8 eb d9 3e ec 97 b8 be
       -0.291715 0.017078593 0.42562842 -0.36053407
0000c0 95 fc 7a 3e 78 2c 39 bd 76 3c 50 bd 0d 4d 07 be
       0.24510415 -0.045208424 -0.05083891 -0.13212986
0000d0 fa f8 a0 bd 04 f3 99 3e 9f 49 07 be a5 7a 8c 3d
       -0.078599885 0.3006822 -0.13211678 0.0685933
0000e0 9c 82 18 3e 84 40 07 3e d1 50 c4 bd 21 90 4c be
       0.14893574 0.13208205 -0.09585727 -0.19976856
0000f0 00 53 cb 3e 42 6c 70 bd 37 f4 b6 be ad 92 a8 3e
       0.3971176 -0.058696993 -0.35733196 0.32924405

net.2.weight f4 [64, 64]
000000 9a e5 39 be 66 15 db 3c f2 21 a0 3d 3f 4e de 3c
       -0.18153992 0.026743602 0.078189746 0.02713692
000010 ed d5 36 3d 98 90 a7 bd e3 a8 3a 3e aa 84 2f 3d
       0.04463761 -0.08181876 0.18228488 0.042851128
000020 c7 0c 08 3d c5 70 fa bc a1 0b 97 3d b4 fa 7e bd
       0.03321531 -0.03057135 0.07375265 -0.062250808
000030 96 52 e6 bc cc 5a 2e be 76 0f 11 be e3 07 bb bd
       -0.028115552 -0.17026824 -0.14166054 -0.09132364
000040 79 41 5d 3d f1 87 7f 3c c0 7d 1c 3e d5 1e 97 be
       0.054017518 0.015596376 0.15282345 -0.2951571
000050 e9 28 a4 bc 7c 87 fa 3c 81 52 39 be 0b 84 db bd
       -0.020039039 0.030582182 -0.18097879 -0.107185446
000060 1e 58 41 bd 5f 2d 42 bd b1 51 69 3e b7 4c 57 bd
       -0.047203176 -0.04740655 0.22785069 -0.052563395
000070 de c4 23 3d 51 48 6f 3e 7c ad 36 3d 32 29 bb bd
       0.03998267 0.2336743 0.04459904 -0.09138717
000080 76 43 99 be ec bb d7 bd a1 fc 05 be ee 0d 84 3d
       -0.2993428 -0.1053389 -0.13084652 0.064479694
000090 40 e1 9a bd a9 bf c8 bd 8d 7f 37 be 68 15 73 3d
       -0.07562494 -0.09802181 -0.1791975 0.059346586
0000a0 38 ab e1 bd 3d ae 47 3d f9 47 18 3d 90 b0 4d bd
       -0.110189855 0.04875015 0.037178013 -0.05021721
0000b0 99 65 9a 3e 7d 17 ed 3d 73 f2 fa 3b 2b 86 12 3e
       0.30155638 0.11576746 0.0076582967 0.14308994
0000c0 a1 ab 07 3e f6 14 0e 3d cf 92 86 3d 1a ea 29 3b
       0.13249065 0.03468796 0.0657097 0.002592689
0000d0 9e 44 55 be 3d 83 f3 3d a8 08 07 3e ae e9 cb 3d
       -0.20826957 0.11890266 0.13186896 0.0995668
0000e0 22 a4 59 3d 4f d9 16 be ef 8a 78 bd b1 64 a0 3d
       0.053135045 -0.14731334 -0.060679372 0.07831705
0000f0 16 fd 67 bd 32 5c 40 3e 1d f9 b1 bd d6 cc 3b 3d
       -0.056637846 0.1878517 -0.08690093 0.045849644
000100 31 5e 64 bb c2 45 0d be 74 e0 59 bd d0 8e 1f bd
       -0.0034846182 -0.13796142 -0.05319257 -0.038954556
000110 47 2d a2 bd db 32 1a bd 26 73 2c bc 39 81 7c bd
       -0.07918792 -0.037646156 -0.0105255 -0.061646674
000120 41 75 08 3e ba 0a 2c be f5 6e 33 bd 65 1c 0e 3d
       0.13325979 -0.16800967 -0.04380699 0.034695048
000130 d6 0e b2 bd 2f fd c9 3d 21 52 1b 3d b7 6a 30 bc
       -0.08694236 0.09862744 0.03792012 -0.01076763
000140 ab 18 3b bd b4 b6 74 3d 58 54 cb bd 58 5b cc bd
       -0.045677822 0.05974455 -0.09928197 -0.0997836
000150 a2 81 27 3d 9c 42 63 be c1 52 68 bd 3d c8 a7 3d
       0.04089511 -0.22193378 -0.056719545 0.08192489
000160 34 04 18 be e4 25 c9 3c ad 68 50 3d ea bf a8 bd
       -0.14845353 0.0245542 0.050881077 -0.0823973
000170 b7 b5 2a 3d bd d9 9a bd 03 a0 2e 3d 54 7b 6d bd
       0.041677203 -0.075610615 0.042633068 -0.057978943
000180 67 da 3a be 7e 13 5b bd 5a ac 14 3d dc c1 b7 bd
       -0.18247376 -0.053485386 0.03629718 -0.089725226
000190 75 bb e0 3d c6 a9 c5 3d 00 c9 2a 3b 28 0c 8c bc
       0.109732546 0.09651522 0.0026059747 -0.01709564
0001a0 e0 8a 85 3d 87 a8 1b ba 7f b1 92 3b 00 20 55 3e
       0.06520629 -0.00059378933 0.0044767256 0.20812988
0001b0 d4 0f b0 bd 4a 49 81 bd 1a d9 76 3e 23 ce 49 be
       -0.08596769 -0.06312807 0.24106255 -0.19707541
0001c0 53 3c 2d 3e 2d c5 62 bd e2 77 79 be b9 e1 83 bd
       0.16917543 -0.055363823 -0.24362138 -0.064395376
0001d0 83 41 3e bc 29 cf 31 3e ae 4f 36 3d 05 95 c5 bd
       -0.011612299 0.17364182 0.044509582 -0.09647564
0001e0 1d 04 16 be 59 2d 84 3c 0e fd 0a be 94 60 b4 bd
       -0.14650007 0.016134905 -0.13573095 -0.08807483
0001f0 b9 7e 81 3d 1c 9b 16 bc 0d ad b3 3d a3 84 8e be
       0.063229986 -0.009192254 0.08773241 -0.2783557
000200 c4 9a 67 be c1 0c 17 be e4 ad 89 3d c5 56 1e 3c
       -0.22617632 -0.14750959 0.0672262 0.009664242
000210 e9 ea 12 bc 31 88 25 bd 20 4d 2d bd 85 db 40 3e
       -0.00896714 -0.040413085 -0.04230988 0.1883374
000220 b0 fe 10 bd 45 d5 72 3d 40 6b f1 3d 38 39 90 3d
       -0.03539914 0.05928542 0.117880344 0.070421636
000230 7f 8b 38 be a2 52 89 bd bb 0b 81 bd 15 9f 3b 3d
       -0.18021964 -0.06705214 -0.063010655 0.04580601
000240 05 6a 46 be 3a fd 45 3d 4e 34 6c 3e 74 59 3d be
       -0.1937638 0.0483372 0.23066828 -0.18491155
000250 2b c2 0f 3c de 1c ee 3d 4f 38 47 bd d4 cc 3a be
       0.008774321 0.116266 -0.048637684 -0.18242198
000260 d3 f3 d2 bc 7b 06 2e be ce 37 92 bd bf 06 c9 bd
       -0.02575103 -0.1699466 -0.0713955 -0.0981574
000270 7f e6 4a be 1b 30 85 3d 49 e0 2a 3d fe a8 d8 bd
       -0.1981449 0.06503316 0.0417178 -0.10579108
000280 f5 c8 84 be 3f 1f 2f bb 5d b6 d7 3c 49 4c b6 3d
       -0.25934568 -0.0026721505 0.026332075 0.08901269
000290 d7 46 11 3d 6d 00 d4 bd d7 30 18 3a ec ba d3 3d
       0.03546795 -0.10351644 0.00058056175 0.10338387
0002a0 fa 17 1c 3d 95 42 bb 3d 93 a2 c5 3d 8c d7 be bc
       0.038108803 0.09143559 0.09650149 -0.02329614
0002b0 56 30 ae 3d c6 dc 8b bd 9e c9 b7 3d 81 7a 00 3d
       0.08505313 -0.068292186 0.08974002 0.03136683
0002c0 9d 11 4b bd 2f 77 81 3d ed d6 83 3d 02 4c ce bd
       -0.049577344 0.063215606 0.06437478 -0.10073091
0002d0 9c 61 b6 bd d9 86 19 3d 70 71 1d 3d 6c eb 16 3e
       -0.08905336 0.037482116 0.03843826 0.14738244
0002e0 e7 82 2f ba 66 16 55 bd 9d e7 12 be fc 4f 1d 3e
       -0.0006695226 -0.052023314 -0.14346166 0.15362543
0002f0 d5 3a 2d be 27 4d 0f 3e 90 71 2d be 1a a9 ff 3d
       -0.16916974 0.13994275 -0.16937852 0.124834254
000300 9f fe d1 bd 31 9f d2 3d 16 39 d6 3d 1a 14 5a 3d
       -0.10253643 0.102842696 0.10460107 0.053241827
000310 68 3d e9 3d 30 48 c2 bd a2 6a bd 3d 70 7b 67 bd
       0.113886654 -0.09486425 0.09248854 -0.056514204
000320 cd 29 89 3d 15 2f 16 3e 9d 0a a2 bc 93 98 49 bc
       0.06697426 0.14666398 -0.019780451 -0.012304443
000330 a1 91 19 be e6 0f 62 be d4 7c 2b bc 9b fc c6 bd
       -0.1499696 -0.22076377 -0.010466773 -0.097161494
000340 da 92 be bd a4 95 cc 3d 72 b9 83 3e ca b7 a0 be
       -0.093053535 0.09989479 0.2572742 -0.3139022
000350 c3 d9 c8 3c d5 a1 0e be 4b cc c9 bc 82 79 90 be
       0.0245179 -0.13928922 -0.024633547 -0.28217703
000360 d9 51 35 3d 8b 28 4a be a9 ef 26 bd 44 cc c6 bd
       0.04426751 -0.19742028 -0.0407559 -0.09706929
000370 1b f6 e6 bc 51 10 24 3e 22 6a 6e bd 15 33 6b bd
       -0.028193524 0.16021849 -0.058206685 -0.057421762
000380 e3 77 2d be 6b 13 e0 3d 4d b6 be bc 75 e4 bb 3c
       -0.16940264 0.10941204 -0.023280287 0.022936085
000390 64 b9 cb bd 70 df 52 3d 97 8f 8a be 34 bf c7 3d
       -0.0994747 0.051482618 -0.27062675 0.09753266
0003a0 3e f6 b2 bd 4a 15 10 3e 69 de ac bd 37 6c e7 bd
       -0.08738373 0.14070621 -0.08440859 -0.11299937
0003b0 56 36 65 3e 74 4d dd 3b 92 eb 77 be 40 e4 dd 3d
       0.22384009 0.006753618 -0.24210957 0.10834551
0003c0 31 23 24 3e e7 6b 0b 3d 80 a8 42 3e 1b 03 29 3d
       0.1602905 0.03403845 0.1900959 0.041262727
0003d0 4a 6f 96 be 52 df dd 3d 91 3d 04 3e db 53 3a 3e
       -0.29381782 0.108336106 0.1291411 0.18196051
0003e0 96 ca 31 3e 63 eb 3e 3d 9d ca 0b be 01 4f d1 bd
       0.17362437 0.0466112 -0.1365151 -0.10220147
0003f0 12 5f 4b be 1f 44 85 3e 17 b8 66 be 7a 86 04 3e
       -0.19860485 0.26028535 -0.22531162 0.12941924

net.2.bias f4 [64]
000000 8b fa 8d bc 91 19 5f bd 00 af b9 3b 43 60 93 3d
       -0.017331382 -0.05446774 0.0056666136 0.07196095
000010 ac 3e d1 bc 18 c8 3d 3d d4 64 5a bd 5d ff 87 bd
       -0.02554258 0.046333402 -0.053318813 -0.066405036
000020 cb 06 2b 3d bf 23 4a 3d 5f f8 72 bd 4c 06 88 3d
       0.041754525 0.049350496 -0.059318896 0.06641826
000030 f9 7c b2 3d ca 29 53 bd 41 d9 37 3d 2e 54 8c 3b
       0.08715243 -0.051553525 0.044884924 0.004282496
000040 be f0 71 3b bc e3 4d 3d 20 35 b0 bd 52 eb a0 3d
       0.0036917175 0.050266013 -0.08603883 0.07857384
000050 3d 9a 18 3d be 26 99 3d 84 c7 c5 bd 66 6d de 3d
       0.037256468 0.074780926 -0.09657195 0.1086071
000060 1b 59 99 bb b1 87 9b bd 13 70 79 3b f6 d1 cd 3c
       -0.0046798117 -0.075942405 0.0038061186 0.025124531
000070 43 b5 f4 3d 4f d5 ec bc 0a 9d ad 3c d7 e1 8b 3d
       0.119486354 -0.028910307 0.021193046 0.06830185
000080 1f b0 11 3d a3 66 66 bd 05 b6 3e 3d f2 91 47 bd
       0.035568353 -0.056250226 0.046560306 -0.04872317
000090 be 5a ac bd eb ec a5 bd cd 68 9f bd 93 8b 5c bd
       -0.08415745 -0.08101829 -0.07783661 -0.053844046
0000a0 0d 08 fe 3c 5d 4b 04 be d7 a3 1a 3d 09 14 a2 bb
       0.031009698 -0.12919374 0.037753906 -0.004946236
0000b0 33 47 93 3d e5 a1 b3 bc 94 6d 69 bb cc d4 7b bc
       0.071913145 -0.021927783 -0.0035618292 -0.015370559
0000c0 d9 b9 07 bd cd 8d a6 bd e0 58 19 bb 8e 40 7e bd
       -0.033136223 -0.08132515 -0.002339892 -0.062073283
0000d0 c0 99 2e 3d 2d b3 c9 bd 72 a9 f3 bc d9 84 3b bd
       0.042627096 -0.09848628 -0.029743884 -0.04578099
0000e0 3a 6e ca bb ad 3b 51 3d 3f 85 e5 3d 46 e5 f2 3c
       -0.006177691 0.051082302 0.11207055 0.029650342
0000f0 f4 05 ee 3c bc e7 a8 3d ec f4 a1 bd 93 18 78 3d
       0.029055573 0.08247325 -0.07908043 0.06057031

policy_mean.weight f4 [1, 64]
000000 f0 b0 fb ba 3a 16 ea bb ce 43 9b 3c 40 ab 05 3c
       -0.0019202512 -0.007143763 0.01895323 0.008158505
000010 5e b2 a1 3a e4 63 8b bb 47 43 10 bc cb 13 1d 3b
       0.0012336483 -0.0042538512 -0.008805103 0.0023968096
000020 f8 c7 12 b9 1d fe 17 3b 30 91 0e bc e1 1b f6 3c
       -0.00013998139 0.0023192235 -0.008701608 0.03004259
000030 05 d1 f7 3b 4a 6d c3 bb 25 d4 1e bc 7c 9a 3b bc
       0.007562759 -0.005963956 -0.009694134 -0.011450406
000040 d8 dc d1 bc 11 07 13 3b e5 ea 0c bc 64 c7 f6 bb
       -0.025618002 0.0022434632 -0.008600925 -0.0075310934
000050 a6 fd 96 bc 40 c6 b0 bb 9b ca 17 3b 56 c1 55 3d
       -0.018431496 -0.005394727 0.0023161534 0.052186333
000060 d8 0b 77 3c f9 59 2f 3c b8 54 36 3c fb fe 48 3a
       0.015078507 0.0107026035 0.011128597 0.00076673896
000070 62 09 44 bc ac 12 b7 3c 10 ff 22 bc 79 e8 27 be
       -0.011965128 0.02234777 -0.009948507 -0.16397275
000080 51 d9 13 bc 90 5a ba bb 28 e4 6b 3b da 78 09 3c
       -0.00902398 -0.0056870654 0.0035994146 0.00839063
000090 09 79 fc ba d1 33 f1 bc 3e d1 8e bc 81 2f 19 bb
       -0.0019262146 -0.029443653 -0.017433759 -0.0023374262
0000a0 d4 75 00 3c 00 23 36 3e 93 54 03 b6 e1 fd 83 3c
       0.007840592 0.17786789 -1.956975e-06 0.01611227
0000b0 43 13 14 bc 85 7f 16 bc 5c 0a 38 3e a2 a5 8f ba
       -0.0090377955 -0.009185676 0.17972702 -0.0010959397
0000c0 51 9f 77 3c 4e a6 82 3c 05 5a 82 bc 53 f8 1f bc
       0.015113668 0.01594844 -0.015912065 -0.009763795
0000d0 bc 66 26 bc 5d 54 92 3c b9 45 2a bc e6 39 3e 3c
       -0.01015633 0.017862493 -0.0103926 0.011610484
0000e0 e4 08 f5 bb be a5 08 be ce 6e 3f b9 7d 08 a1 bb
       -0.0074778665 -0.13344476 -0.00018256457 -0.004914342
0000f0 0b a2 70 bb f0 cf e9 bc f5 7b ac 3c b9 48 d1 3b
       -0.003671768 -0.028541535 0.021055201 0.006386843
